Trained_models/model_1.pth (torch, 25189 bytes, 2 tensors)

classifier.0.weight f4 [5, 320]
0	0x3fb593c2	1.4185717
1	0x3fd9349b	1.6969179
2	0x3fa8a83a	1.3176339
3	0x3ea5a0ab	0.32349142
4	0xbf06b87d	-0.52625257
5	0x3e9a33b1	0.30117562
6	0x3e0f66d0	0.14004064
7	0x3f175967	0.5912079
8	0x3f78eb85	0.97234374
9	0x3e3f260a	0.18666855
10	0xbde0b3f9	-0.10971827
11	0xbd9050d8	-0.0704667
12	0x3f54e2f4	0.83158803
13	0x3f338a50	0.70132923
14	0x3ef207a9	0.4727147
15	0x3ff182b9	1.8868018
16	0x3f3f3bab	0.7470042
17	0xc057ccc6	-3.3718734
18	0x400cad2e	2.19807
19	0xbfc2227a	-1.5166771
20	0x3f9565c8	1.1671686
21	0x3fab9529	1.3404895
22	0x3f2986d5	0.6622136
23	0xbfa939f4	-1.3220811
24	0x3fa6efe0	1.3041954
25	0xbea68d8a	-0.3252986
26	0xbf5e0f59	-0.8674217
27	0xbc99f67a	-0.018794287
28	0x3ecf9c36	0.40548867
29	0xbf6c3f20	-0.9228382
30	0x3e7f3a6b	0.24924628
31	0x3e8e4f1e	0.27794737
32	0xbf7e405a	-0.9931694
33	0x3e8d2c94	0.27573073
34	0x3fbab75a	1.4587204
35	0x3fc50671	1.5392591
36	0xbf912df2	-1.1342146
37	0x40731e6e	3.7987323
38	0xbf7d4f38	-0.98949003
39	0xc00ca153	-2.1973464
40	0xbc123555	-0.008923848
41	0xbf9132a5	-1.134358
42	0xbf4ab338	-0.79179716
43	0x3d34f768	0.044181257
44	0xbf91f0a3	-1.1401561
45	0xbf6f94c3	-0.9358637
46	0x3f6350dc	0.88795257
47	0x3fcb9c04	1.5906987
48	0xbf8cd9d8	-1.1003981
49	0x3f90d6bd	1.1315533
50	0xbf099946	-0.537495
51	0x3ee0d240	0.43910408
52	0xbf97217f	-1.1807097
53	0xc02c7df2	-2.695187
54	0xbe21d6ce	-0.15804598
55	0xbfb19bef	-1.3875712
56	0x3f2e2fb2	0.6804153
57	0x40039fcc	2.0566282
58	0xbf79e609	-0.9761663
59	0xbea2f739	-0.3182924
60	0xbf309262	-0.6897336
61	0x3fafbcb3	1.3729461
62	0xbe602bd7	-0.21891724
63	0x3fa43220	1.2827797
64	0x3f62e3e8	0.8862901
65	0x3f332606	0.69979894
66	0xbf3281a0	-0.6972904
67	0x3f9742e1	1.1817285
68	0x3ebc530a	0.36782104
69	0x3eaacafe	0.33357996
70	0xbf7fbd4c	-0.9989822
71	0x3efa5664	0.48894036
72	0x3f90c04e	1.1308687
73	0x4006375d	2.097129
74	0xbe75ed33	-0.24016266
75	0x3f87dba9	1.061391
76	0x3e0c434d	0.13697548
77	0xbff509e7	-1.9143647
78	0x400d82b4	2.2111025
79	0xbef3275f	-0.47490975
80	0x3f84a1e0	1.03619
81	0xbdbcd8c6	-0.09221034
82	0x3f44e5df	0.76913255
83	0xbf8bf4ab	-1.0934042
84	0x3f81c875	1.01393
85	0x3f0045b5	0.50106364
86	0x3fa7e6f0	1.3117352
87	0x3ed5b5f1	0.41740373
88	0x3f95dd4c	1.170816
89	0xbf8fd8d9	-1.1238052
90	0xbf5aed34	-0.85518193
91	0x3f8b94c9	1.0904781
92	0x3d512ac9	0.051066194
93	0x3f219861	0.63123137
94	0x3ee57c89	0.44821575
95	0xbefefd4c	-0.49802625
96	0xbdcceb71	-0.100058444
97	0xbf5e80f5	-0.8691552
98	0xbe17b670	-0.14815688
99	0xbf1985b9	-0.5996967
100	0xc01ad7aa	-2.419413
101	0x40117226	2.272592
102	0xbc82e0d1	-0.015976341
103	0x4032ac3b	2.791762
104	0xbfb88dd1	-1.4418279
105	0xbf24da1a	-0.64395297
106	0xbfd13ede	-1.634731
107	0x3e7cfcb1	0.24705769
108	0xbeb481b8	-0.35255218
109	0xbff670c3	-1.9253162
110	0x3f4a524f	0.7903184
111	0x3f8e755c	1.1129565
112	0x3fcfe1b1	1.624075
113	0x3e5e492a	0.21707597
114	0x3fdf8ae3	1.746426
115	0x3eec069a	0.46098787
116	0x3f401ae7	0.7504105
117	0x3f061848	0.523808
118	0xbe46fd53	-0.19432573
119	0xbfcb5de7	-1.5888032
120	0xbe3542c2	-0.17701247
121	0xbebef91d	-0.37299433
122	0x3fe5d457	1.7955426
123	0x3eb0ba9c	0.34517372
124	0xbf59c416	-0.8506483
125	0xbde2ad90	-0.11068261
126	0xbee92b41	-0.45540813
127	0xbced9c30	-0.02900514
128	0xbe8e775c	-0.2782544
129	0x3edb67eb	0.4285272
130	0x3fa359d9	1.2761794
131	0x3f10647c	0.56403327
132	0xbeaba972	-0.33527714
133	0x3da85e2b	0.08221086
134	0x3f522df4	0.8210137
135	0x3fa71269	1.3052493
136	0xbdeddf08	-0.116148055
137	0x3fb53872	1.4157851
138	0xbe11a149	-0.14221682
139	0xbf3994cd	-0.72492677
140	0x3ea0adea	0.31382686
141	0x3f1ffb9d	0.62493306
142	0x3f39729d	0.7244051
143	0xbdea979d	-0.11454699
144	0xbd92250a	-0.07135971
145	0x3fe4b7d9	1.7868606
146	0xbf845550	-1.0338535
147	0x3f67d88b	0.90564793
148	0x3e6a9694	0.22909003
149	0x3f34b887	0.70594066
150	0x3eb0e7d9	0.34551886
151	0xbc981e17	-0.018569035
152	0x3f9be5a9	1.2179462
153	0xbd9d2fc1	-0.07675124
154	0x3d3f80ed	0.046753813
155	0xbf389cfa	-0.7211453
156	0x3fd1e610	1.6398335
157	0xbee5c5e2	-0.44877535
158	0x3ed9ac47	0.4251425
159	0xbe81244c	-0.25223005
160	0x3f1a300c	0.60229564
161	0xbfd06848	-1.6281824
162	0x3eb8fa1f	0.36128327
163	0xbf62a4fb	-0.8853299
164	0x3f4046d6	0.7510809
165	0x3ba424d5	0.0050092735
166	0xc02e5a2c	-2.7242537
167	0xbfd74cc1	-1.6820298
168	0xbf647fbb	-0.892574
169	0x3f842213	1.0322899
170	0x3edefe2a	0.43553287
171	0xc021ba1d	-2.5269845
172	0x3f0dac25	0.55340797
173	0x3eb23a4c	0.34810102
174	0x3c5908a0	0.013246685
175	0xbfc3df72	-1.5302565
176	0xbe22c7da	-0.1589655
177	0xbe9ce1e7	-0.306411
178	0xbecf420b	-0.40480074
179	0x3f55d8e3	0.8353407
180	0xbe342960	-0.17593908
181	0xbf7726a2	-0.96543324
182	0xc013de51	-2.310444
183	0xbfcbc635	-1.5919863
184	0x3ff4623f	1.9092482
185	0xbefc88f6	-0.49323243
186	0xbf2d5c4c	-0.6771896
187	0xbf475a11	-0.77871805
188	0x3ed66c76	0.41879624
189	0xbf23d26b	-0.6399295
190	0x3f050c19	0.51971585
191	0x4021b7e6	2.5268493
192	0x3ec3f35a	0.382716
193	0xbf3b2d38	-0.73115873
194	0x3e97194a	0.29511482
195	0xbfce4965	-1.6116148
196	0xbfad05e6	-1.3517425
197	0x3eef2b59	0.4671276
198	0xbf6455b7	-0.8919329
199	0xbfbcf59d	-1.4762455
200	0x3e97b7ae	0.29632324
201	0x3fe8278c	1.8137069
202	0xc007b1e1	-2.1202319
203	0x3e4c3ff3	0.1994627
204	0xbecfc468	-0.40579534
205	0x40069795	2.1030018
206	0xbff95f65	-1.9482237
207	0x3e1d62c6	0.1536971
208	0xbea737ca	-0.3265975
209	0x3fe6da90	1.803545
210	0x40244406	2.5666518
211	0xbd7c77ae	-0.061637573
212	0x3f149ad5	0.58048755
213	0x3eece4f5	0.4626843
214	0x4013c4bd	2.308883
215	0x3fa492ba	1.2857277
216	0xbee419d2	-0.4455095
217	0x3faabd9e	1.3339117
218	0x3d789b5a	0.06069503
219	0xbf5c3462	-0.8601743
220	0xbdfcfba3	-0.123526834
221	0xbfcd7078	-1.6049948
222	0xbfae3e49	-1.3612758
223	0xbf4c4ffd	-0.7980955
224	0x3d9fe5b1	0.07807482
225	0xbfb03add	-1.3767964
226	0x3eb23818	0.3480842
227	0xc0109e9e	-2.2596812
228	0x3f7eeb2f	0.9957761
229	0xc0a0a4f8	-5.020138
230	0xbd2b394c	-0.04180269
231	0xc019c8d5	-2.4028828
232	0x3f0f853a	0.5606266
233	0xc0877ec1	-4.234223
234	0x3c41502b	0.011798899
235	0xbf746bf2	-0.9547721
236	0x3fcf237e	1.6182706
237	0x3fa07641	1.2536088
238	0xbfdd940d	-1.7310807
239	0xc015eb9d	-2.3425057
240	0xc000cc6c	-2.012477
241	0xbeab91c0	-0.33509636
242	0xbfe67ee0	-1.8007469
243	0x3ec2fe3b	0.38084587
244	0xbffa8cf3	-1.9574264
245	0xbf2051d6	-0.6262487
246	0x3e40980d	0.18808003
247	0xbe8b47c0	-0.27203178
248	0x3eb15040	0.34631538
249	0x3bb1f877	0.0054312306
250	0xbf9d5234	-1.2290711
251	0xbfa94dfc	-1.3226924
252	0x3f10d983	0.56581897
253	0xbda56732	-0.080763236
254	0x3f738131	0.95119005
255	0xbf00d2ab	-0.50321454

classifier.0.bias f4 [5]
0	0x3e0c52ed	0.13703509
1	0xbecc8a2a	-0.3994916
2	0xbdb843a6	-0.08997278
3	0xbdf8170b	-0.1211377
4	0xbe0c9a77	-0.13730799
