Trained_models/model_3.pth (torch, 25189 bytes, 2 tensors)

classifier.0.weight f4 [5, 320]
00000000: b151 823f a816 6f3f 1898 183f 318b 67be
00000010: 500e 7c3d fbc3 32be a8d9 223e 1a1d 093f
00000020: ca56 4b3f c672 d73e 43a8 02bc 892d 9abd
00000030: 1707 2e3f 71e1 063f b005 c63e c6d1 0b40
00000040: f8ff 8fbe 0003 67c0 baf1 cf3f c40d ddbf
00000050: af4c e13f 641e c83f f661 123f 26ae 8bbf
00000060: 4d55 063f 7213 7f3f 71a9 73bf 0a7c f8be
00000070: 8ac2 4c3f cd8a cdbf 262e 8dbf e7da 533f
00000080: eac8 e8bf 06b8 48bd c636 bd3f 1b1c 1340
00000090: 4289 27bf 0cfe 7d40 9946 a4bf 5097 fcbf
000000a0: 0231 afbb 68f4 6cbf 24ef bebe fe14 49bd
000000b0: 5e07 75bf 8e88 79bf 5a89 a63e c9da 413c
000000c0: 0924 683e b237 5f3f 769f 0d3e 767e 5b3f
000000d0: f8c3 efbe d252 1ac0 c551 e23e eb19 2cbf
000000e0: 628b dfbe 28b2 b13f e629 3fbf c04f 94bf
000000f0: b7ae babf 7221 8f3e 839d 6dbf 0791 973f
00000100: 65db a43e 5423 443e 458f 36bf 58de 4040
00000110: 8675 3d3f a5fc 463f 8046 79bf 9ace 2f3d
00000120: 7e6a 0040 612f b33f cd3c 13bf 07b9 763f
00000130: 6fb9 223f 1bc3 07c0 46eb c53f f1f5 38bf
00000140: c36d 433f f140 ebbd f688 213f 2885 01bf
00000150: e286 513f ec26 403d 67a3 c53f c4eb 01bf
00000160: 85c6 403f ee59 eabd 648e b63e 4a7f 023f
00000170: 280f 183d fb43 593e a61f 75bd 269e 90bd
00000180: 116e 5b3d 656d 45bf 9aa1 bb3e d4a1 03bf
00000190: 05a4 e2bf 85de 2640 0b82 9abe 8e9f da3f
000001a0: acb6 bcbe fbf2 05be 149a 36bf e8b4 bd3d
000001b0: 2929 7f3f 0c3e f5bf 003c de3e 4367 4f3f
000001c0: 4a84 463f 3a75 93be 3e1a a83f fad3 df3d
000001d0: d737 113f f5d1 f13d 4eaa 02be dd67 f1bf
000001e0: 68ec 13bd d1e1 90bf 5f9e 0d40 c8b0 f13e
000001f0: 7f3f 04c0 0db1 72bd 79f9 adbf 43cb c73f
00000200: 67fb 82bf 0184 073f cfb5 7c3f 3dff e93e
00000210: 8a6c bcbe ffee 2cbf f186 393f c784 813f
00000220: 385b d03f 274d 9e3f 4320 033e e3ba 2cbe
00000230: ba37 773e 6f2b f23e 9ce5 ab3e 2a8d c33e
00000240: 1bcc 823f bba2 2540 f19f 6abf 66c0 263f
00000250: abf1 9abd 1d8b dc3e b3d3 4c3f 3b12 25be
00000260: 74fe 863f b69b 973d 8672 a73f f09e 50bf
00000270: 76b3 f23f 711b bbbe a987 883f 94fc 743e
00000280: 8724 e93e 3a0b a8bf 7596 b53e df31 10bf
00000290: 9195 263f 62eb df3e 2081 84c0 69b0 9cbf
000002a0: 2e85 423d 5f2f 903f 9be4 803e a645 0bc0
000002b0: a515 953e 7c25 29be c890 99be 300d 37c0
000002c0: 75b8 7bbe 67f7 96bf ec61 a43d 0796 863f
000002d0: 4293 c9be 17e8 68bf 3285 e4bf d55e 41bf
000002e0: 0fc1 a93e 3f0e 90bf 393f 8fbe 9cc1 5abf
000002f0: 4d1d 663d 36c9 78bf 0390 983f 1512 2840
00000300: 8794 9abe d178 88bf d98a ca3e 68c7 19c0
00000310: 28d6 25bf 5766 203f e728 c8bf 866b 4abf
00000320: e7f2 ee3c 478b efbe 0dce 7ebf 76b2 463f
00000330: a313 51bf 6785 c43f 6ed7 ccbf dfd2 f83f
00000340: 434b e1bf 11bf 923f fd65 0e40 00db cf3f
00000350: d870 e23f e7a0 d7bd 77eb ae3f bf97 b73e
00000360: af87 3cbf 810f bb3f 32af 88ba 8a20 dbbf
00000370: c91e d9be 026a b1be dd59 febf 2fce 17bf
00000380: d9c8 22be ee35 4dbf b13e c53e dedf f8bf
00000390: dd2d 85be 122c f9bf 8a75 15bf 2cae 86c0
000003a0: f9c9 233e fe05 b3c0 b652 cabd fdc1 54bf
000003b0: c201 723f 68f3 dd3f 7f14 0dc0 f3b6 05c0
000003c0: 9a6c e0bf b268 383f dc29 c2bf 73c8 933f
000003d0: 0ab7 44c0 9d4b 46bf 0266 d43e d821 28bf
000003e0: 8bb5 bd3d e72e 86be 3a7c c9be 12de a7bf
000003f0: 0a2a 693f df81 6c3f 7b2b ab3f 57c9 1dbf
1.018118 0.93393946 0.59607077 -0.22611691 0.061537087 -0.17457573 0.15903342 0.5356003
0.79429305 0.42079753 -0.007974687 -0.075282164 0.6797957 0.52687746 0.38676214 2.1846786
-0.28124976 -3.609558 1.6245644 -1.7269826 1.7601527 1.5634274 0.57180727 -1.0912521
0.5247391 0.99639046 -0.9518042 -0.48532134 0.79984343 -1.6057984 -1.1029708 0.82755893
-1.8186314 -0.049003623 1.478234 2.2985904 -0.65443814 3.9686308 -1.2834045 -1.9733677
-0.0053464184 -0.92560434 -0.37291825 -0.049092285 -0.95714366 -0.9747399 0.32526666 0.011831948
0.22669996 0.8719436 0.13830361 0.8573984 -0.468292 -2.411305 0.4420301 -0.6722705
-0.43661028 1.3882494 -0.74673307 -1.1586838 -1.4584569 0.27955204 -0.9281847 1.1841134
0.32198635 0.19154102 -0.7131236 3.0135708 0.7400745 0.77729255 -0.973732 0.04292164
2.0064998 1.3998834 -0.5751465 0.9637608 0.635642 -2.1212833 1.5462425 -0.72250277
0.7633936 -0.11486996 0.6309961 -0.50593805 0.8184644 0.04691212 1.5440491 -0.50750375
0.75302917 -0.11442934 0.3565551 0.5097548 0.03712383 0.21217339 -0.059844635 -0.070614144
0.053571764 -0.7712005 0.3664673 -0.51418805 -1.7706305 2.6073315 -0.3017734 1.7079942
-0.36858118 -0.13080971 -0.71328855 0.09263021 0.9967218 -1.915956 0.4340515 0.8101694
0.7754561 -0.28800374 1.3133008 0.10929103 0.5672583 0.11807624 -0.12760279 -1.8859822
-0.036114126 -1.1318914 2.2127912 0.47205186 -2.0663755 -0.05925088 -1.3591758 1.5608906
-1.0232972 0.52935797 0.9871492 0.45702544 -0.3680156 -0.6755218 0.7247153 1.0118645
1.6277838 1.2367295 0.12805276 -0.16868167 0.24142352 0.47298762 0.33573616 0.38193637
1.0218538 2.5880573 -0.916503 0.65137327 -0.07565626 0.43074885 0.8001053 -0.16120236
1.0546403 0.074027464 1.3081825 -0.8149252 1.8961017 -0.36544374 1.06664 0.23924476
0.4553568 -1.3128426 0.35466352 -0.563261 0.6507197 0.4373427 -4.1407623 -1.2241336
0.04749029 1.1264457 0.25174412 -2.176126 0.29118076 -0.16518205 -0.29993272 -2.86018
-0.24582084 -1.1794251 0.080264896 1.0514535 -0.3937016 -0.9097914 -1.7853148 -0.7553533
0.33155105 -1.1254348 -0.27977923 -0.85451674 0.056180287 -0.97182024 1.1918949 2.6261036
-0.30191442 -1.066187 0.39559057 -2.4027958 -0.647799 0.6265616 -1.5637482 -0.7907032
0.02916856 -0.46785948 -0.9953316 0.7761606 -0.8167059 1.5353211 -1.6003244 1.9439353
-1.7601093 1.1464559 2.2249749 1.6238708 1.7690687 -0.105287366 1.3665608 0.3585796
-0.73644537 1.4614106 -0.0010428189 -1.7119305 -0.424063 -0.3465119 -1.9871174 -0.59298986
-0.1589693 -0.80160415 0.38524392 -1.9443319 -0.26011553 -1.9466574 -0.58382475 -4.208761
0.15995015 -5.5944815 -0.09879057 -0.831085 0.9453393 1.7339907 -2.204376 -2.0892913
-1.7533143 0.7203475 -1.5169024 1.1545547 -3.0736718 -0.77459127 0.41484076 -0.6567664
0.09263142 -0.2620766 -0.3935259 -1.3114645 0.9107977 0.9238567 1.3372644 -0.61635345

classifier.0.bias f4 [5]
00000000: 856e 1c3d dcc4 f4be 63e4 06bd b561 3bbe
00000010: 731c 95be
0.038191337 -0.47806442 -0.03293265 -0.18298991 -0.29123268
