Trained_models/model_2.pth (torch, 25189 bytes, 2 tensors)

classifier.0.weight f4 [5, 320]
00000000: 5524 093f c3dd 033f 8710 1c40 943d 753e
00000010: e900 90bd 9cc0 103f f008 e63e 46a1 9c3e
00000020: 75f7 c83f 0ad3 cb3d 5749 ca3d 721f bdbd
00000030: b882 d73f 98e2 a53e 6c69 ee3d de87 4b40
00000040: 7d07 fa3e 20c3 7fc0 58ff 2740 76b1 5ac0
00000050: 1820 2d40 7795 d23f 96b8 e03e 73ac c2bf
00000060: ea35 8d3f 8dc5 4ec0 ecaa bdbf b589 323f
00000070: adf5 b33f 0eed 8dbf 055a 16be f55c afbe
00000080: be6b c1bf 45da b43e 9900 4540 c8f8 2840
00000090: 7a84 24bf 1743 4c40 8725 38c0 3a07 38c0
000000a0: 209a b5bf e9f0 b8bf 4c73 d83e d9b7 0340
000000b0: efff b2bf c339 0cc0 a7fb d73f 7502 8b3f
000000c0: dbac 07bf 6a02 b33f 8be7 433d fc7a 6abe
000000d0: 3902 adbf b3c1 81c0 cd63 cdbe 4396 b13b
000000e0: e823 5b3e 7f47 1040 1fdf a7be 018b acbf
000000f0: 88f2 b3bf 717e ab3e b06b bf3d 7408 443f
00000100: 1fdc d93f 4f8c f93e 59db 8abf b7f0 6740
00000110: 3d0b a53d bd51 523e 9ccb acbf 4844 153f
00000120: cd2c bf3f c28a 0b40 89ca c0bf 3e6f 113f
00000130: 4d0d 47be f27e 0dc0 4053 0f40 f014 99bf
00000140: 39ee a03f 4080 babe b297 343f 3380 c0bf
00000150: eb19 b73e 8ec1 5d3e 9f99 1640 9e89 473e
00000160: 4c5d 9f3f 4269 133e 0d2e 8fbf 1035 6e3f
00000170: 7504 a1be 837f 713f 6648 143e a2c2 0fbe
00000180: 5755 c83e ff6b 23bf 2968 cfbe 1d7e 56bf
00000190: 4ad3 e5bf 29c3 3040 3b63 3cbf 2cd5 2240
000001a0: 7ad7 5d3f 4cef 643f d16b 20bf ccfb 023f
000001b0: cd88 573f 51d0 06c0 9539 983f 1f72 953f
000001c0: 7801 373f 599f 823d 4f5e dc3e 9e60 ac3e
000001d0: 3152 a43f 263a c33e 8579 f9bd 5bce 18c0
000001e0: 9764 103f f370 433e 601e 3440 29a5 8f3f
000001f0: a431 8fbf 08a0 4cbf 156f b0be 2cc8 873f
00000200: 9c45 bebf 3d79 b83e 7fc2 a53f 55a6 1c3f
00000210: 6b65 acbd f17b 5cbf f6cf 8b3f e00e 5c3f
00000220: 6e27 ad3d 0d10 a43f 5f2f 5dbf d2bd 2abf
00000230: b2fb 223f aa2a f03e 7e58 b93f 0174 4c3f
00000240: 502b a33e a090 8440 b0cd 45bf 0f95 053f
00000250: dd04 6bbf bf8f 003f 03a8 5f3f 8486 883e
00000260: a0bd a03f 17d2 ae3e e5e7 823e 838f 163f
00000270: d05f e03f df78 5a3e 1881 f23f 688e 353f
00000280: b1f1 773f ab28 53bf ba7b ac3d a7d9 80be
00000290: 807c a33e 7c87 2a3f 7042 23c0 3c9e cabf
000002a0: 3c28 14bf 3428 d63f a26e f43e 65f1 b8bf
000002b0: c931 14bf fbfb a73f d53f fe3c e414 47c0
000002c0: 710b c6be 80e9 21bf e50b a3be 077f 563f
000002d0: 4674 1ebe b2a8 e5bf 350d 4dc0 0a92 96bf
000002e0: 15e0 0a3f 370d 90be bb6e 2ebf 7532 80bf
000002f0: b184 093f 26e9 6abf 3e26 443f ce3c 6640
00000300: 4ed3 3cbf 4885 8bbe 4518 ea3e 31c5 0fc0
00000310: 1f76 cdbf 0a4a 113f 812c aabf a2b5 39be
00000320: 87b4 1ebf e6f0 1c3f 16f3 b1bf 8cd5 b9be
00000330: ac8f 6bbf 7c31 dd3f bbb1 15c0 ca4a c93f
00000340: 7432 0dc0 8fe2 7740 5235 fd3f 3a39 c43f
00000350: 82bc 3b40 8d49 9c3e 32e1 5b40 0edd 6f3d
00000360: 4f7a a1be 68c7 c93f 6e8d 48bf dacd 4ac0
00000370: 88d6 5e3e 34ac 86bf 5b9b 93bf e338 6ebf
00000380: 9778 a03e ecbf b5bf 1f36 8a3f 654a 57c0
00000390: 5f15 78be 3e38 5cc0 1d1e 87be cd6f 5bc0
000003a0: 013c 093f 268f acc0 c8fe 6abf 137e c43e
000003b0: 3868 d23f db32 0a3f d355 d6bf 7b00 21be
000003c0: c198 80c0 24ef 8f3f 6bff 27c0 39bc 293f
000003d0: 69b9 30c0 347d 55bf 1fc0 02bf b90f 1fbf
000003e0: 2ee0 403e 7222 2dbe 8266 3ebd f63a fabf
000003f0: ee35 813f 45c5 883f 016f e53f 7186 f5be
0.53571063 0.51510257 2.4385087 0.23949271 -0.070314236 0.565439 0.44928694 0.30591792
1.5700518 0.09952362 0.0987727 -0.09234513 1.6836767 0.3239944 0.116412014 3.1801677
0.48833838 -3.9962845 2.62496 -3.4170814 2.7050838 1.6451863 0.43890828 -1.5208877
1.1032078 -3.2308075 -1.4817786 0.69741374 1.4059349 -1.1087968 -0.14682777 -0.34250608
-1.5111005 0.35322776 3.0781615 2.6401844 -0.64264643 3.1915948 -2.8772905 -2.875441
-1.418766 -1.444852 0.42275465 2.0580962 -1.3984355 -2.1910255 1.6873673 1.0860125
-0.5299813 1.3985112 0.04782824 -0.22898477 -1.3516303 -4.054895 -0.40115204 0.005419524
0.21400416 2.2543638 -0.32787415 -1.3479921 -1.405839 0.33494905 0.09346712 0.765754
1.7020301 0.4873986 -1.084819 3.624067 0.08058784 0.20538993 -1.3499637 0.58307314
1.4935547 2.180344 -1.5061809 0.5681037 -0.19438668 -2.2108731 2.2394562 -1.1959515
1.25727 -0.36425972 0.7054397 -1.5039123 0.3576196 0.21655867 2.3531263 0.1948609
1.2450347 0.14395621 -1.1185929 0.93049717 -0.31448713 0.9433519 0.14480743 -0.1403909
0.3912761 -0.63836664 -0.40509155 -0.83786184 -1.7955105 2.7619116 -0.73588914 2.544261
0.86656916 0.8942764 -0.62664515 0.5116546 0.84193116 -2.1064646 1.1892573 1.1675452
0.71486616 0.063780494 0.43040702 0.33667463 1.2837583 0.381303 -0.12181381 -2.387595
0.5640349 0.19086055 2.814354 1.1222278 -1.1187024 -0.7993169 -0.3445975 1.0607963
-1.4864993 0.36029997 1.294998 0.611913 -0.084177814 -0.8612662 1.092284 0.859602
0.08454786 1.2817398 -0.8640041 -0.6669589 0.63665307 0.4690755 1.4480131 0.7986451
0.31868982 4.1426544 -0.7726698 0.5218057 -0.91804296 0.5021934 0.8736574 0.26665127
1.2557869 0.3414466 0.25567546 0.5881273 1.752924 0.21335171 1.8945646 0.7092042
0.96853167 -0.8248393 0.084220365 -0.25166056 0.31930923 0.6661298 -2.55093 -1.5829539
-0.5787389 1.6731019 0.47740656 -1.4448668 -0.57888466 1.3123773 0.031036297 -3.11065
-0.38680604 -0.6324692 -0.31845012 0.8378758 -0.15474042 -1.7942107 -3.203931 -1.1763318
0.5424817 -0.28135082 -0.6813771 -1.0015398 0.53718096 -0.91762006 0.7662085 3.5974612
-0.73759925 -0.27250123 0.4572164 -2.2464106 -1.6051673 0.567536 -1.3294832 -0.18135694
-0.6199421 0.6130508 -1.3902309 -0.36295736 -0.920161 1.7280726 -2.3389728 1.5725949
-2.2062044 3.873203 1.9781897 1.5329964 2.9333806 0.30524865 3.4356198 0.058560424
-0.31538627 1.5763979 -0.78340805 -3.1688142 0.21761525 -1.0521302 -1.1531786 -0.9305555
0.31342003 -1.4199195 1.0797766 -3.3639157 -0.24226902 -3.4409328 -0.26390162 -3.4286988
0.53607184 -5.392474 -0.91795015 0.38377437 1.6438055 0.5398385 -1.6744941 -0.1572284
-4.0186467 1.1244855 -2.6249645 0.6630283 -2.7613165 -0.8339417 -0.51074404 -0.62133366
0.18835518 -0.16907671 -0.046484478 -1.9549243 1.0094583 1.0685202 1.7924501 -0.47954133

classifier.0.bias f4 [5]
00000000: f749 723e 4574 21bf e187 2abd e59a 7dbe
00000010: 20de 93be
0.23661028 -0.6306804 -0.04163349 -0.24766119 -0.28880405
