Trained_models/model_4.pth (torch, 25189 bytes, 2 tensors)

classifier.0.weight f4 [5, 320]
00000000: 84d5 c43f 474c ac3f 5e56 973f 5cea 753b
00000010: 64b9 13be a358 1bbe 4433 58bf 2c8a d33e
00000020: f5a5 3c3f c42b 2abe e6eb 5c3d ef9d d8be
00000030: c3c7 9b3f 6373 193e 468d d3bd 1986 0740
00000040: 9984 26bf af35 68c0 90df d23f 1981 7abf
00000050: 1df6 1b3f aa2a 943f b2db 083f 6a85 43bf
00000060: 102b 833f 9e3e d73e c8f0 6cbf d8d6 71be
00000070: e1c5 f23d 2450 18bf ee4a 97be 134d d0be
00000080: a44f a7bf 2714 683e d315 9b3f 9615 2a40
00000090: 4176 cebe 671e 7a40 2884 9dbf c1c8 d3bf
000000a0: a624 13bf ad63 32bf ff1c 4fbf cffa 473f
000000b0: 41b0 2cbf 79ac 85bd 3605 433f 55bc 153f
000000c0: 2331 50bf 0d1f 683f e51d 38be 183b 653e
000000d0: a201 98be f00f acbf adb2 e53e 1797 be3f
000000e0: 0d7e adbe 601f a13f 8fc3 1abb a566 1cbf
000000f0: 0e4e 6abf eec9 453e d704 9cbf 89a9 363f
00000100: 5a45 393f b2f8 e2bc 9efd d9be 10de df3f
00000110: 2f92 64bf cbad 9b3e b2cd 80bf 229b a0bf
00000120: 7a42 02bf 61d7 aa3f 41eb 773e ecc9 973f
00000130: 5fc7 af3c e985 c5be 2bd7 0f40 275c 81bf
00000140: a649 4d3f 8aa0 b9bd aa1b 943f 9503 36bf
00000150: 6892 933f d132 263f 2cb4 9f3f f338 30bf
00000160: c2cb 873f e2da 84be 1a32 2f3f 0081 3e3f
00000170: cfe4 59bf 0864 5abe ba6c 873f 58bf 28bd
00000180: cf32 e5bd 8613 09bf cdfc 613f c7f5 4dbe
00000190: 34db 8fbf 0afd 463f 6c43 bdbe b69b af3f
000001a0: c265 a6bf 2434 d8bd a4f3 9cbf 2a6b 193e
000001b0: 47d0 c93d dd65 c8bf b388 b33f a7c4 3b3f
000001c0: d10c 913e 1e29 573d fece 8a3f c6c3 963e
000001d0: 6beb 88be 7fd1 2d3f dd9a e7bf 5fa5 e3bf
000001e0: 3ac1 cb3d 6011 83bf 1107 563f ce26 6c3e
000001f0: ecbe 93be 0d47 b23d 5d64 0bbf afa8 4c3f
00000200: a410 6ebf af5f a03e 7f60 af3f ce0d 073f
00000210: 1b71 b23e f900 2b3f e09e 6b3f fa2e 853f
00000220: 9a7a 683e 22c3 8b3f 9cb7 84bf 6095 723e
00000230: 9bb0 003e e5cb 39bd c659 0e3e 6ca7 bdbd
00000240: bee3 743f 3a6e 0440 5b4c b83d fded 323f
00000250: 5a9b 023f 2828 613f d4fb b43e 3290 b93d
00000260: be34 4d3f 9980 65be 913f 923e fe0e 4dbe
00000270: 6132 0640 670b 05bf 76e0 403f b8f6 adbe
00000280: 4187 2f3f 9a37 98bf b5c6 f13d 8870 ccbe
00000290: d64b bf3e 3842 fd3d a97e c3bf a31b 82bf
000002a0: ffba 72bf fdf1 333f 58f2 4e3e 11fc 60bf
000002b0: c9a4 5a3d ce4e e4bc b87e 663d 3721 f4bf
000002c0: fefe 4c3e 3de2 9bbe 74ca 4dbc 1ff2 95bd
000002d0: f257 62bf 7e7e bdbf 821e 14c0 9082 8fbf
000002e0: 047a 0c3f 9cb7 7fbf bec5 b4be a615 1bbf
000002f0: 2749 fd3d 72be 18be c3b8 4bbe 0b4e 0040
00000300: 3242 70bf 1881 a4be cc29 043f 09b9 7bbf
00000310: 0339 89bf f00f da3e 4b75 9dbf 95f9 63bf
00000320: 7000 343f 1c0f 203f bd22 8dbf f132 3ebf
00000330: e594 b6be da61 793f 892a 11c0 18f7 a73f
00000340: 7cad 01c0 4ac8 d13f eab2 0e40 e80b 0940
00000350: 95fc 1b3f 9e7f b83f 2e09 d73f 822d 8fbe
00000360: a4f2 6dbf ed80 9f3f cb1c 3f3f 9aec a4bf
00000370: c346 07bf 0c14 cebf 76e3 b1bf e481 0ebf
00000380: e614 1d3f a90a 77bf 1abc b43e fca4 e0bf
00000390: fe2c d9bc c7db dfbf 74a6 4bbe 3030 81c0
000003a0: 5836 d83f c4a4 81c0 a51b c1be 0017 70bf
000003b0: d2dd a93d dc8c 953f 18de 1cc0 9baa 4cc0
000003c0: 2621 d0bf 5999 b53c c4d3 96bf bbf8 433e
000003d0: 500a 06c0 8616 17bf 2556 9c3f 7fff d9bd
000003e0: 6a7a 973d c0d4 ff3d 252b 43be c85d a3bf
000003f0: c2a4 843e 1f9c 1c3d dd64 f23e 46b8 efbe
1.537766 1.3460778 1.1823232 0.0037523722 -0.1442619 -0.15170531 -0.84453225 0.41316354
0.7369073 -0.16618258 0.053935908 -0.42307994 1.2170337 0.14985423 -0.1032968 2.1175597
-0.6504608 -3.6282766 1.6474476 -0.9785324 0.60922414 1.157552 0.5346023 -0.7637545
1.0247517 0.4203996 -0.92554903 -0.23617113 0.11854149 -0.59497285 -0.29549354 -0.40683803
-1.3071179 0.22663938 1.2116035 2.6575675 -0.40324596 3.9081056 -1.2305956 -1.654564
-0.57477796 -0.69683343 -0.8090362 0.7811708 -0.6745644 -0.06527037 0.76179826 0.58490497
-0.81324977 0.9067238 -0.17980154 0.22385824 -0.29688746 -1.3442364 0.4486288 1.4889859
-0.33885232 1.25877 -0.0023615097 -0.61094123 -0.9152535 0.19315311 -1.2188977 0.7135244
0.7237145 -0.027706478 -0.42576307 1.7489643 -0.8928556 0.3040603 -1.0062773 -1.2547343
-0.50882685 1.3346978 0.24210836 1.1858497 0.021457372 -0.38578728 2.2475078 -1.0106248
0.80190504 -0.090638235 1.1570942 -0.71099216 1.1529055 0.6492129 1.2476859 -0.688369
1.0609057 -0.25948244 0.68435824 0.7441559 -0.8511476 -0.21327221 1.0580056 -0.041198105
-0.111913316 -0.53545415 0.8827637 -0.20113288 -1.123877 0.77729857 -0.369655 1.3719394
-1.2999804 -0.1055682 -1.2261853 0.14982286 0.09854179 -1.5656086 1.4026092 0.7334694
0.2833009 0.052529447 1.0844419 0.29446238 -0.2674211 0.6789779 -1.8094136 -1.7784842
0.099489644 -1.0239677 0.8360453 0.23061678 -0.288566 0.08704958 -0.5445002 0.7994489
-0.9299414 0.31323 1.3701323 0.5275544 0.34851918 0.6679836 0.920393 1.0404961
0.22703019 1.0918925 -1.0368533 0.23689795 0.1256737 -0.045360465 0.13901433 -0.09260449
0.95660007 2.0692277 0.08998939 0.6989439 0.510183 0.879519 0.3534838 0.09060706
0.80158603 -0.22412337 0.28564122 -0.2002525 2.096825 -0.51970524 0.753425 -0.33977294
0.68565756 -1.1891968 0.118054785 -0.39929605 0.37362546 0.12366146 -1.5273029 -1.0164684
-0.94816583 0.7029112 0.20209634 -0.8788462 0.053379808 -0.027869608 0.056273192 -1.9072636
0.20019147 -0.30446044 -0.012560476 -0.073215716 -0.88415444 -1.4804227 -2.314362 -1.121172
0.5487368 -0.9988954 -0.35307115 -0.6057991 0.12367468 -0.14916399 -0.198947 2.0047634
-0.93851006 -0.3212974 0.51626277 -0.98329216 -1.0720524 0.42590284 -1.230142 -0.89052707
0.7031317 0.62523055 -1.1026226 -0.7429648 -0.35660473 0.97414935 -2.2682211 1.3122282
-2.0262136 1.6389248 2.22967 2.1413517 0.60932285 1.4413946 1.6799676 -0.27964407
-0.92948365 1.246122 0.7465331 -1.2884705 -0.5284235 -1.6099868 -1.389754 -0.5566695
0.61360013 -0.9650064 0.3529976 -1.7550349 -0.026510712 -1.7488946 -0.19887716 -4.0371323
1.6891584 -4.051363 -0.37716404 -0.93785095 0.08294262 1.1683612 -2.4510555 -3.197913
-1.6260116 0.022167848 -1.1783376 0.19137852 -2.0943794 -0.59018743 1.2213789 -0.10644435
0.073963955 0.12491751 -0.19059427 -1.2762995 0.2590695 0.038234826 0.47342578 -0.46820277

classifier.0.bias f4 [5]
00000000: a2e3 0d3e 454a 28bf 8508 0abd cf75 9abc
00000010: 2054 edbd
0.13856366 -0.65738326 -0.03369953 -0.018855004 -0.11588311
