Trained_models/model_5.pth (torch, 25189 bytes, 2 tensors)

classifier.0.weight f4 [5, 320]
0.09065701 0.5688038 0.39009038 -0.24845412 -0.34501317 0.26640484 0.24347092 0.6606094
0.7714564 -0.17287631 -0.20364733 0.05181056 0.89797413 0.39696577 0.2007287 1.9070487
0.50150096 -3.0687418 1.3424169 -0.5616631 1.1959655 1.4604914 0.30493477 -0.7719763
1.4067743 0.097608544 -0.9625697 -0.2910428 -0.022680512 -0.16657315 0.17338362 0.18379435
-0.77173305 0.36156893 1.1988373 1.9497147 -0.06865607 3.149839 -0.82074374 -1.7717094
0.004014245 -1.1068723 -0.43471113 0.83839977 -1.1419939 -0.58310485 0.4768445 0.7187047
-0.5232304 0.83603084 -0.1746957 0.24246335 -0.40941796 -1.2627242 -0.106299095 0.6866763
-0.026655344 0.94890547 -0.62925094 -0.44597363 -0.5104717 -0.018629441 -0.29150474 0.5362996
0.49665222 0.4631949 -0.1905755 1.1414311 -0.17125049 0.5482503 -1.2415198 0.39130747
0.63305426 0.90883374 -0.15606442 0.6658021 1.1239463 -1.0630118 0.99991286 -0.7635627
0.5500864 -0.36119455 0.55575055 -0.6689468 0.5787015 -0.119080156 1.0937684 -0.81719875
0.624129 0.2585021 0.15657277 0.9237904 0.113928385 0.6855018 0.10850792 0.16141492
0.08644178 -0.39967874 0.2366131 -0.2973814 -0.66344494 1.1181974 -0.3139054 1.8443811
-0.4663909 -0.091599986 -0.611778 -0.15862434 0.27971223 -1.2704161 0.2949554 0.6699905
0.108038336 -0.041757245 0.55372065 0.1954924 0.031118015 0.30288652 -0.64563626 -0.8804084
0.27634194 -0.37979165 1.4729309 0.3662581 -0.030679757 -0.24834132 -0.16511929 0.5713771
-0.4644008 0.398596 0.689654 0.49112707 0.43505314 -0.08447683 0.59504247 1.2311709
0.2657099 0.7796704 -0.87933916 0.1661443 0.38573858 0.26198867 0.34930423 -0.021034759
0.47715133 1.9964259 -0.3266778 0.21508154 0.05116718 0.63958764 0.6462066 0.256206
1.7930961 0.17759243 0.6502895 -0.8776297 1.1077638 -0.16192667 1.2167054 -0.12184952
0.1351784 -0.7655755 0.05338811 -0.2600209 0.16681479 -0.5221881 -1.7896217 -1.0096021
-0.19630057 0.6888168 0.09246607 -1.5262537 -0.52488774 0.13820252 -0.117730536 -2.109157
-0.1275769 -0.12545565 -0.017064266 0.23011027 -0.41717166 -0.61830926 -1.7246206 -0.812714
0.7645068 -1.1303599 -0.18799531 -0.3832513 0.24308465 -0.6392118 0.55471253 1.0943563
0.06309794 -0.27382672 0.029821133 -1.3380607 -0.70115674 0.15543142 -0.90655655 -0.62110347
0.22117257 0.549058 -0.7349208 0.5808365 -0.36780903 0.8417338 -1.2620355 0.9758715
-0.6106136 1.126826 2.0062268 0.23596561 0.48615015 0.112332985 0.90089875 0.73499703
-0.5596216 1.4789724 -0.017315943 -0.22524527 -0.37539622 -0.8143917 -1.0170087 -0.58012813
-1.4377472 -0.94541043 0.104207486 -1.4550784 -0.09309363 -2.969837 -0.44175106 -2.3674695
0.87784207 -3.1136837 0.06857824 -1.1890966 0.29737946 1.0706229 -1.1699492 -1.0206325
-1.4025679 -0.33717832 -1.3713125 0.16118209 -2.163378 -0.4011275 0.2854105 -0.1398337
-0.3715587 0.11575126 0.38231376 -1.162824 0.2905316 0.45949492 0.5380055 -0.23568642
00000000: 62aa b93d 209d 113f edb9 c73e c26a 7ebe
00000010: 91a5 b0be 3766 883e 7150 793e b31d 293f
00000020: 2b7e 453f 7d06 31be ed88 50be 4f37 543d
00000030: a2e1 653f 193f cb3e d38b 4d3e 2c1a f43f
00000040: 5e62 003f 4466 44c0 51d4 ab3f 27c9 0fbf
00000050: 6615 993f 62f1 ba3f 6920 9c3e 3da0 45bf
00000060: 2e11 b43f fde6 c73d f86a 76bf 9003 95be
00000070: 7bcc b9bc 2792 2abe 7a8b 313e 9634 3c3e
00000080: 4c90 45bf 901f b93e 8073 993f 4090 f93f
00000090: 8e9b 8cbd f696 4940 431c 52bf 60c7 e2bf
000000a0: ed89 833b fead 8dbf 7592 debe 5ea1 563f
000000b0: db2c 92bf 5c46 15bf f624 f43e 08fd 373f
000000c0: 6df2 05bf 1e06 563f 6ee3 32be 5048 783e
000000d0: 3b9f d1be f2a0 a1bf 57b3 d9bd 05ca 2f3f
000000e0: 4f5c dabc 78eb 723f 9716 21bf a856 e4be
000000f0: 46ae 02bf c59c 98bc 1c40 95be ee4a 093f
00000100: 3349 fe3e e227 ed3e 3926 43be 6a1a 923f
00000110: 4a5c 2fbe 225a 0c3f 1fea 9ebf 7459 c83e
00000120: d80f 223f 54a9 683f 5acf 1fbe 0272 2a3f
00000130: 79dd 8f3f c510 88bf 4afa 7f3f d878 43bf
00000140: 76d2 0c3f 7eee b8be ab45 0e3f 1940 2bbf
00000150: c825 143f 4ce0 f3bd 9a00 8c3f f033 51bf
00000160: ebc6 1f3f 635a 843e 9d54 203e 877d 6c3f
00000170: 4953 e93d 0c7d 2f3f 6639 de3d f449 253e
00000180: 6308 b13d b1a2 ccbe b44a 723e 6042 98be
00000190: 87d7 29bf 1821 8f3f 35b8 a0be ae14 ec3f
000001a0: caca eebe c698 bbbd 7c9d 1cbf 6b6e 22be
000001b0: 7136 8f3e ff9c a2bf 6504 973e 7f84 2b3f
000001c0: 3443 dd3d a509 2bbd a3c0 0d3f 292f 483e
000001d0: 35eb fe3c f113 9b3e 6b48 25bf 7262 61bf
000001e0: b17c 8d3e 0d74 c2be 0089 bc3f 2f86 bb3e
000001f0: 1d54 fbbc 304d 7ebe 0815 29be c545 123f
00000200: f1c5 edbe c614 cc3e 2a8d 303f 0275 fb3e
00000210: 49bf de3e 3002 adbd b454 183f 0297 9d3f
00000220: 210b 883e 7b98 473f 5f1c 61bf bb21 2a3e
00000230: 877f c53e 6123 863e 01d8 b23e 1651 acbc
00000240: 2e4d f43e e28a ff3f 5042 a7be 563e 5c3e
00000250: ad94 513d 04bc 233f cc6d 253f 6f2d 833e
00000260: 2c84 e53f cada 353e 5f79 263f 57ac 60bf
00000270: 34cb 8d3f 1bd0 25be 01bd 9b3f 3e8c f9bd
00000280: 356c 0a3e c2fc 43bf 7ead 5a3d 7621 85be
00000290: 7fd1 2a3e 1fae 05bf 5312 e5bf a43a 81bf
000002a0: 0403 49be 4c56 303f da5e bd3d 485c c3bf
000002b0: 0b5f 06bf f684 0d3e b51c f1bd 6efc 06c0
000002c0: 85a3 02be 7277 00be 5cca 8bbc 07a2 6b3e
000002d0: 8697 d5be 8449 1ebf 5ec0 dcbf 060e 50bf
000002e0: b8b6 433f a2af 90bf d881 40be 8439 c4be
000002f0: 2feb 783e 62a3 23bf a401 0e3f de13 8c3f
00000300: 7e39 813d 0433 8cbe 734b f43c 9345 abbf
00000310: 027f 33bf 6a29 1f3e 1714 68bf a300 1fbf
00000320: 107b 623e 118f 0c3f c523 3cbf b3b1 143f
00000330: 7751 bcbe de7b 573f 618a a1bf b7d2 793f
00000340: 2c51 1cbf d63b 903f 0566 0040 f8a0 713e
00000350: ace8 f83e d60e e63d 4da1 663f c428 3c3f
00000360: 5c43 0fbf f84e bd3f 2ada 8dbc b2a6 66be
00000370: ef33 c0be f97b 50bf 572d 82bf 4783 14bf
00000380: 1a08 b8bf 6b06 72bf bc6a d53d 0240 babf
00000390: e0a7 bebd cf11 3ec0 322d e2be 9f84 17c0
000003a0: 42ba 603f 9846 47c0 c072 8c3d 5134 98bf
000003b0: 1f42 983e 2c0a 893f e5c0 95bf 16a4 82bf
000003c0: 5887 b3bf a3a2 acbe 2b87 afbf eb0c 253e
000003d0: c974 0ac0 9560 cdbe 5321 923e 9130 0fbe
000003e0: f13c bebe ff0e ed3d a1be c33e 6bd7 94bf
000003f0: 8fc0 943e eb42 eb3e baba 093f c857 71be

classifier.0.bias f4 [5]
0.19959895 -0.499344 -0.07311842 -0.10573395 -0.21345589
00000000: ab63 4c3e 04aa ffbe 1cbf 95bd 0b8b d8bd
00000010: 2e94 5abe
